api/src/services/models/modelo1.pth (torch, 55536 bytes, 9 tensors)

lstm.weight_ih_l0 f4 [128, 1]
0	0x3f3b5288	0.7317281
1	0x3f157810	0.58386326
2	0xbe7e7be8	-0.24851954
3	0xbaebf50a	-0.0018002104
4	0x3dc9ce6d	0.09853826
5	0x3f3cc84d	0.73743135
6	0x3e3e9828	0.1861273
7	0x3de95434	0.113930136
8	0x3eaefe32	0.3417831
9	0x3e6034cc	0.2189514
10	0x3e40d657	0.18831764
11	0x3e3b93ce	0.18318102
12	0x3e07c615	0.13259156
13	0xbd88453d	-0.06653831
14	0x3e4db8cc	0.20090026
15	0x3d84dbca	0.06487234
16	0x3f980eee	1.1879556
17	0x3e94d009	0.29064968
18	0x3d85d136	0.065340444
19	0x3e29bfdd	0.16577096
20	0x3db07d5e	0.08617662
21	0x3e9e4e5d	0.3091916
22	0x3e3bcefc	0.18340677
23	0xbe0a4724	-0.135037
24	0xbdd6d530	-0.10489881
25	0x3dd4ead5	0.10396353
26	0x3f194fe2	0.59887516
27	0x3ea4c4b6	0.3218133
28	0x3e48b40a	0.1959993
29	0x3e9dc4f9	0.3081434
30	0x3ce8c5d5	0.028414646
31	0x3f38a461	0.7212582
32	0x3e8394cf	0.2569947
33	0x3dc03683	0.09385397
34	0xbd2aa38e	-0.041659884
35	0xbd8a751a	-0.067606166
36	0x3e8a5a2d	0.27021924
37	0xbe0b764b	-0.13619344
38	0x3e16ecac	0.1473872
39	0x3e1bdb4b	0.15220372
40	0x3e845769	0.2584794
41	0x3df36a8e	0.11885558
42	0xbde5c29c	-0.112187594
43	0xbd8755f3	-0.066081904
44	0xbe46cfa7	-0.1941515
45	0x3d9df08e	0.07711898
46	0xbdee1beb	-0.11626419
47	0xbe2689d2	-0.16263512
48	0xbe89a881	-0.2688637
49	0x3e8cb005	0.27478042
50	0x3e6563be	0.2240133
51	0x3e729c17	0.23692356
52	0x3dcac01c	0.09899923
53	0xbbd91680	-0.0066249967
54	0xbda71f16	-0.08160226
55	0xbe2f3511	-0.17110087
56	0xbc5e4728	-0.01356677
57	0x3e3ca476	0.18422112
58	0xbd4670e9	-0.048447523
59	0x3e1e1230	0.15436625
60	0xbdc24978	-0.09486669
61	0xbe5d23da	-0.21595708
62	0x3dc03a09	0.09386069
63	0x3e201f6a	0.15636984
64	0xbf0585e6	-0.5215744
65	0x3f00440b	0.50103825
66	0x3e0c4631	0.13698651
67	0xbdad9513	-0.08475699
68	0x3e7b4dd3	0.24541406
69	0xbebe68e9	-0.37189415
70	0xbe2ed5b7	-0.17073713
71	0xbe939f27	-0.2883236
72	0x3eedc255	0.46437326
73	0x3e6b0e90	0.22954774
74	0x3e8073a4	0.25088227
75	0x3e8fd3be	0.28091234
76	0x3d8223a7	0.063544564
77	0xbdeb309e	-0.11483882
78	0x3e8796c1	0.26482204
79	0x3e435d45	0.19078548
80	0xbebef0ff	-0.3729324
81	0xbe93197b	-0.28730378
82	0x3c146efe	0.009059666
83	0x3e9084ad	0.28226224
84	0x3ec43b95	0.38326707
85	0x3e7dfbef	0.24803136
86	0x3e62dc0b	0.22154252
87	0xbe9460f3	-0.28980216
88	0x3dfc76a5	0.12327317
89	0x3ea30fa3	0.31847867
90	0xbea717ad	-0.3263525
91	0x3e439abb	0.19101994
92	0xbeb6b2d2	-0.35683304
93	0xbe5ea6cc	-0.21743315
94	0xbe7a0025	-0.24414118
95	0x3ec3824c	0.38185346
96	0x3f468c29	0.7755762
97	0x3eef3fc5	0.4672834
98	0x3d53796d	0.051629473
99	0xbea506b2	-0.3223167
100	0x3ebc3dc0	0.36765862
101	0x3ec5ab51	0.38607267
102	0x3c89942f	0.016794292
103	0x3e4f5ae9	0.20249523
104	0x3f07e1b3	0.53078765
105	0x3f138f7e	0.57640827
106	0x3e71eefb	0.2362632
107	0x3e87b261	0.2650328
108	0xbd4ab4f7	-0.049488988
109	0xbe124780	-0.14285088
110	0x3ec7e2f5	0.39040342
111	0xbe942fa2	-0.2894259
112	0x3f2463b7	0.6421465
113	0x3ed5fb6b	0.4179338
114	0x39f74056	0.00047159445
115	0x3dff6cee	0.124719486
116	0x3e941ed8	0.28929782
117	0x3ebcf536	0.3690583
118	0x3dc39ac5	0.09551004
119	0x3adc4da6	0.0016807809
120	0xbe8a2f68	-0.26989293
121	0x3d8e6a05	0.06953815
122	0x3eb8ace0	0.36069393
123	0x3ee4bc5d	0.4467496
124	0x3e5ac5ef	0.21364568
125	0x3e9a981b	0.30194172
126	0x3ed2d6dd	0.41179553
127	0x3f660840	0.8985634

lstm.weight_hh_l0 f4 [128, 32]
0	0xbdb47dfe	-0.088130936
1	0x398065a6	0.00024489796
2	0x3eb1134d	0.34585038
3	0xbe92cc6f	-0.28671595
4	0x3eea0c71	0.45712617
5	0x3f03a18f	0.51418394
6	0x3e2ac718	0.1667751
7	0xbe208032	-0.15673903
8	0x3e01b69a	0.12667313
9	0xbeb7fe0c	-0.3593601
10	0xbd8eed47	-0.06978851
11	0x3ea128e9	0.31476524
12	0x3c9c9650	0.019114643
13	0xbec676e3	-0.38762578
14	0x3ea32d71	0.31870607
15	0xbe81efc0	-0.25378227
16	0x3edd142a	0.43179446
17	0xbeb04e00	-0.3443451
18	0x3f0f386d	0.55945474
19	0x3e40af06	0.18816766
20	0x3e86629a	0.26247102
21	0x3e2b5fc5	0.16735752
22	0xbf19a328	-0.6001458
23	0xbda74ab3	-0.081685446
24	0x3dc65a36	0.09685175
25	0xbdf62860	-0.1201942
26	0xbe1df368	-0.15424883
27	0x3effbfef	0.4995112
28	0x3db704f9	0.08936495
29	0x3e2ace91	0.16680361
30	0xbf113667	-0.56723636
31	0xbeece988	-0.4627192
32	0xbec10aa3	-0.37703428
33	0x3eb23d21	0.34812263
34	0x3e85f784	0.26165402
35	0xbe572c87	-0.2101308
36	0x3e974aaa	0.29549152
37	0x3df390b3	0.118928336
38	0xbe0f21a8	-0.13977683
39	0xbe25457f	-0.16139792
40	0x3f17bbe0	0.5927105
41	0xbf15e781	-0.5855637
42	0xbe58d561	-0.21175148
43	0x3df6c6a8	0.120496094
44	0xbdf7de4e	-0.12102948
45	0xbea16529	-0.31522492
46	0x3dcc56bc	0.09977481
47	0xbf253704	-0.6453707
48	0x3d44a3d0	0.048007786
49	0xbead808c	-0.33887136
50	0x3edd1f70	0.43188047
51	0xbda2fdb1	-0.07958544
52	0x3e24efa8	0.16107047
53	0x3c957a72	0.018246863
54	0xbf4b8b6a	-0.79509604
55	0x3e14a009	0.14514174
56	0x3d9c5f5e	0.07635377
57	0x3d4fd871	0.050743524
58	0x3e4f1c80	0.20225716
59	0x3de11cfa	0.10991855
60	0x3cb754d8	0.022379324
61	0x3e672415	0.22572358
62	0xbe6d2fd6	-0.23162779
63	0x3e5df33c	0.21674818
64	0xbe0cd776	-0.13754067
65	0x3d59d008	0.05317691
66	0xbdc69c40	-0.09697771
67	0x3d200298	0.039064974
68	0x3d86ffce	0.065917596
69	0xbe3dd22b	-0.18537204
70	0x3e4bd1b4	0.19904214
71	0xbd9e441b	-0.07727834
72	0x3ceafaaa	0.028683979
73	0x3e9229da	0.28547555
74	0x3e38a91e	0.18033263
75	0x3e2979bd	0.16550346
76	0xbe2aa356	-0.1666387
77	0xbddf076e	-0.10890089
78	0xbc8805ac	-0.016604267
79	0xbd1a401a	-0.03765879
80	0x3dc1c8ef	0.09462153
81	0xbdb50476	-0.088387415
82	0x3d248f68	0.040175825
83	0x3e24fc04	0.16111761
84	0xbd506543	-0.05087782
85	0x3e0596c7	0.13045798
86	0x3dc83c10	0.09777081
87	0x3dcc1b5d	0.09966157
88	0x3cbfacee	0.023397889
89	0xbe0a5c61	-0.13511802
90	0x3dcfaf42	0.1014085
91	0xbe879265	-0.26478878
92	0x3cb2adfd	0.02181148
93	0x3dc0d3a8	0.0941537
94	0x3d54c648	0.05194691
95	0x3e37591e	0.1790509
96	0xbec0f4a4	-0.37686646
97	0x3eebbcbd	0.46042433
98	0xbe57fc9e	-0.2109246
99	0x3e8caa98	0.27473903
100	0x3e96cc90	0.29452944
101	0xbf14d34b	-0.5813491
102	0x3d895268	0.06705171
103	0xbead8227	-0.3388836
104	0x3e624437	0.22096334
105	0x3e859fd6	0.26098508
106	0x3e5187d4	0.2046197
107	0x3d9182e0	0.071050406
108	0x3e582ad3	0.21110086
109	0xbe631f4b	-0.22179906
110	0x3d5cd0cb	0.053910058
111	0x3da6ffea	0.081542805
112	0xbebff4bf	-0.37491414
113	0xbdc2f453	-0.095192574
114	0x3ddd5d05	0.10808758
115	0x3e2bcd3a	0.16777506
116	0x3e2d3205	0.16913612
117	0x3ed82144	0.4221288
118	0x3ea9c488	0.33157754
119	0x3da4641e	0.08026908
120	0xbe79c053	-0.24389772
121	0x3eac11a0	0.33607197
122	0xbea45594	-0.3209654
123	0x3d1c161d	0.038107026
124	0xbed1414d	-0.40870133
125	0x3c940f4c	0.0180737
126	0xbda0d298	-0.078526676
127	0x3f286d30	0.65791607
128	0xbe52821f	-0.2055745
129	0x3cebd2ce	0.028787043
130	0x3d93f77c	0.07224938
131	0x3d2d2ba1	0.042277936
132	0xbdea3bf5	-0.11437217
133	0xbde89ed8	-0.11358422
134	0xbd154bda	-0.03644929
135	0x3d573720	0.052542806
136	0x3d087b8b	0.033320945
137	0xbd3ab209	-0.045579944
138	0xbeb53b47	-0.35396788
139	0x3e0b331d	0.13593717
140	0xbd08517a	-0.033280827
141	0xbe4b5cab	-0.19859569
142	0x3e14af38	0.14519966
143	0xbe1e1388	-0.15437138
144	0x3e2682c5	0.16260822
145	0xbe55d4d0	-0.20881963
146	0xbbb837e6	-0.005621898
147	0xbd441011	-0.047866885
148	0xbd8874aa	-0.06662877
149	0x3c894648	0.016757146
150	0xbb733ad1	-0.0037113915
151	0xbcfcd5bd	-0.030863637
152	0xbd09c253	-0.033632588
153	0x3e3e8397	0.18604885
154	0x3d65992f	0.05605429
155	0x3e1684a3	0.14699034
156	0xbe2ea070	-0.1705339
157	0x3d93ad56	0.072107956
158	0x3db30298	0.08740729
159	0x3e94a5e4	0.29032815
160	0xbf240475	-0.640693
161	0x3f2f4cf4	0.68476796
162	0x3e65ad19	0.22429313
163	0x3d4ba1b6	0.049714766
164	0x3dbaa529	0.09113533
165	0xbe12ca1f	-0.14334916
166	0x3e94ef39	0.29088762
167	0xbd66f3b1	-0.056384746
168	0x3e9489f1	0.2901149
169	0xbeab40a6	-0.3344776
170	0xbed190a4	-0.40930665
171	0x3e858970	0.2608142
172	0x3dd29944	0.10283139
173	0xbe1d7710	-0.1537745
174	0x3e573503	0.21016316
175	0xbeedf78c	-0.46477926
176	0xbe48ee1c	-0.19622082
177	0xbdeb7e8e	-0.11498748
178	0x3ecd7565	0.40128627
179	0x3e6af176	0.22943673
180	0x3ed4d6af	0.4157004
181	0x3e9b0b51	0.3028207
182	0xbf22cf8d	-0.6359795
183	0x39bc5714	0.00035923033
184	0xbe312451	-0.1729901
185	0xbd6117c9	-0.054954324
186	0xbcfb553c	-0.030680291
187	0x3b6f4ff1	0.0036516155
188	0x3cdb805d	0.026794607
189	0x3dbdb9d8	0.092639625
190	0xbea0bac4	-0.3139249
191	0x3e1b493c	0.15164655
192	0x3dcc1894	0.099656254
193	0xbd29d1d8	-0.04145989
194	0xbed49a92	-0.41524178
195	0xbc3e6637	-0.01162105
196	0xbe6515e9	-0.2237164
197	0x3ec8001a	0.39062577
198	0x3e8bd6f7	0.27312443
199	0xbe2c5e86	-0.16832933
200	0xbea82386	-0.32839602
201	0x3da287e0	0.07936072
202	0xbe8925bd	-0.26786605
203	0x3d95045a	0.072762206
204	0x3c7f013d	0.01556426
205	0x3ccf4481	0.02530122
206	0x3d81b5ac	0.06333479
207	0xbf0bde7e	-0.5463637
208	0x3e37a2a8	0.17933142
209	0x3e8ff530	0.2811675
210	0x3e038598	0.1284393
211	0xbe7cd205	-0.24689491
212	0x3ebc182d	0.36737195
213	0xbe6165da	-0.2201151
214	0xbec9f889	-0.3944743
215	0x3eadfeeb	0.3398355
216	0x3d955251	0.07291091
217	0xbec2bad7	-0.38033172
218	0x3e961eb7	0.2932031
219	0xbf2cc4f2	-0.67488015
220	0x3e9ab971	0.30219606
221	0xbe1da0d6	-0.15393385
222	0x3e86ee48	0.2635367
223	0x3e077d09	0.13231291
224	0xbc042134	-0.008064557
225	0xbc242b45	-0.010020082
226	0x3e034a93	0.12821417
227	0x3cccd6b1	0.025004717
228	0x3e1777ee	0.14791843
229	0xbe1cd0bb	-0.15314
230	0x3e822102	0.25415808
231	0x3d34faa6	0.04418435
232	0xbd403483	-0.04692508
233	0x37d032e0	2.4819223e-05
234	0x3db8c3d4	0.09021726
235	0xbc522721	-0.012826712
236	0x3e3e4ac8	0.18583214
237	0xbe09b300	-0.1344719
238	0xbe171377	-0.14753519
239	0xbd684675	-0.056707818
240	0x3dc745f2	0.09730138
241	0x3d9d5c17	0.0768358
242	0x3e5ecef0	0.21758628
243	0xbb605f19	-0.003423637
244	0xbd23f7b3	-0.040031146
245	0x3d950b39	0.07277531
246	0x3e00087d	0.12503238
247	0x3d72dc39	0.059292052
248	0xbde08aba	-0.1096396
249	0x3cd2544b	0.02567496
250	0x3dbbfafe	0.09178732
251	0xbe22be0a	-0.15892807
252	0xbe23d82f	-0.16000436
253	0x3c85037e	0.016237017
254	0xbc226b74	-0.009913314
255	0xbdcf8bcf	-0.10134088

lstm.bias_ih_l0 f4 [128]
0	0x3f03422a	0.51272833
1	0x3edac620	0.42729282
2	0x3db37980	0.08763409
3	0x3d9b19fc	0.075733155
4	0xbb57ea00	-0.0032945871
5	0x3dab12dc	0.083532065
6	0xbce5e7d0	-0.028064638
7	0x3cccd200	0.02500248
8	0x3e7902c0	0.24317455
9	0x3e4bed7d	0.19914813
10	0x3e462a0a	0.19351974
11	0x3dbe95c0	0.09305906
12	0xbc4499af	-0.011999532
13	0x3d0bd12f	0.03413504
14	0xbd29266f	-0.04129642
15	0x3e0bc6f7	0.13650118
16	0x3e2495b4	0.16072732
17	0x3e15de30	0.14635539
18	0xbe0dc9e8	-0.13846552
19	0x3debf673	0.11521616
20	0x3e707c1a	0.23484841
21	0x3e86ff99	0.2636688
22	0x3d80f4a9	0.06296665
23	0x3e10378c	0.1408369
24	0xbe0cae74	-0.13738424
25	0x3e4c6afb	0.19962685
26	0x3e9f84ae	0.31155914
27	0x3e5f3da1	0.21800853
28	0x3dfc1024	0.12307766
29	0x3cfe0fdc	0.031013422
30	0x3e20e6a6	0.15712985
31	0x3ed21422	0.41030985
32	0xbeb5cddf	-0.3550863
33	0xbe59dc27	-0.21275388
34	0xbe09bfb3	-0.13452034
35	0x3e0a19e9	0.13486446
36	0xbe0a001b	-0.13476603
37	0xbde06ee7	-0.10958653
38	0x3d4ddc83	0.050259124
39	0x3dddc7ea	0.10829146
40	0xbe4ae5c1	-0.19814207
41	0xbc857b13	-0.016294038
42	0x3db9454c	0.090464205
43	0xbdf9c4e0	-0.12195754
44	0x3dcdc0cb	0.10046538
45	0x3c143327	0.009045399
46	0xbe779eaf	-0.24181627
47	0x3e1534d0	0.14570928
48	0xbd9cfef2	-0.076658145
49	0xbe190e1a	-0.14946786
50	0x3da38bae	0.07985626
51	0xbdd8c5df	-0.10584616
52	0xbe0226f8	-0.12710178
53	0xbd2513db	-0.04030214
54	0x3d18bc46	0.037288927
55	0xbdaf6676	-0.08564465
56	0x3d790025	0.060791153
57	0x3cf4ca0a	0.029881496
58	0x3e20ab1a	0.1569027
59	0xbdd04b28	-0.10170585
60	0xbd9e5be0	-0.077323675
61	0x3dce227e	0.100651726
62	0x3d91b3c7	0.07114368
63	0xbd942bf2	-0.072349444
64	0x3d0ba5de	0.03409373
65	0xbd236dfc	-0.03989981
66	0x3d6d176e	0.057883672
67	0xbcfbba00	-0.03072834
68	0xbdc351cd	-0.09537087
69	0x3dc3b446	0.09555869
70	0x3d99988c	0.07499799
71	0xbd17e2bf	-0.037081476
72	0xbd8e4721	-0.069471605
73	0xbdee8e47	-0.11648231
74	0x3d7ef6ff	0.062247273
75	0xbbd03634	-0.0063541178
76	0xbc0f8f4b	-0.008762191
77	0xbe17a28f	-0.14808105
78	0x3d54cc03	0.051952373
79	0xbda64207	-0.081180625
80	0x3dff6244	0.124699146
81	0x3c10f6ac	0.008847874
82	0x3c0c0dcc	0.008548211
83	0xbd446e7a	-0.04795692
84	0xbd3b0eda	-0.04566846
85	0xbe5a660e	-0.21327993
86	0xbe408756	-0.18801627
87	0x3dc81657	0.09769886
88	0x3d44e6d5	0.0480717
89	0xbe3e905f	-0.1860976
90	0x3daf6949	0.085650034
91	0x3df24a05	0.11830524
92	0x3dd930c2	0.10605003
93	0x3c9b5e31	0.018965812
94	0x3dd21db6	0.10259573
95	0x3d062e23	0.032758843
96	0x3f1e84cc	0.6192138
97	0x3e8b903a	0.27258474
98	0xbde0daf0	-0.10979259
99	0x3e4c3ae0	0.19944334
100	0x3cf79586	0.030222666
101	0x3e44556a	0.19173208
102	0x3e15a77d	0.14614673
103	0xbbfd2973	-0.0077258884
104	0x3e49a9ed	0.19693728
105	0x3e85dbc9	0.26144245
106	0x3e4f89a6	0.20267352
107	0xbddded7a	-0.10836311
108	0x3e2b094e	0.16702768
109	0xbbc31582	-0.0059534917
110	0x3cf981d4	0.030457415
111	0x3e122b3e	0.14274308
112	0x3ebf1ae4	0.37325203
113	0x3de8962a	0.113567665
114	0xbd8ed86f	-0.06974875
115	0x3da60e58	0.081082046
116	0x3e848c6d	0.25888386
117	0x3e829224	0.2550212
118	0x3e355e1f	0.17711686
119	0x3e922726	0.28545493
120	0xbb2c157a	-0.0026257918
121	0x3e3ade0b	0.18248765
122	0x3ee41229	0.44545105
123	0x3e442685	0.19155319
124	0x3d11e710	0.03562075
125	0xbc03ccda	-0.008044446
126	0x3e315717	0.17318378
127	0x3e1ea03a	0.15490809

lstm.bias_hh_l0 f4 [128]
0	0x3ec94b1f	0.39315125
1	0x3e84dd5a	0.25950128
2	0xbdc3f006	-0.09567265
3	0x3e1eeead	0.15520735
4	0xbdf6f5a1	-0.12058569
5	0x3da9ea70	0.082966685
6	0xbda20177	-0.07910436
7	0xbe2f44ae	-0.17116043
8	0x3e92b332	0.2865234
9	0x3e7e9fdf	0.24865673
10	0x3e14d562	0.14534524
11	0x3d9a4358	0.07532376
12	0x3d3fe322	0.04684747
13	0x3cc683ef	0.024232833
14	0xbd1f2b09	-0.0388594
15	0x3e874674	0.2642094
16	0x3e2fe6e4	0.17177922
17	0x3d517576	0.05113741
18	0xbdcf96d4	-0.1013619
19	0x3cd07071	0.025444241
20	0x3e4205fc	0.18947595
21	0x3e041ba1	0.12901165
22	0x3dd6c102	0.10486032
23	0xbd8149c2	-0.06312896
24	0x3e110f16	0.14165911
25	0x3e344c0f	0.17607139
26	0x3d33b54e	0.043874077
27	0x3e0f3b9b	0.13987581
28	0xbd0d55d7	-0.03450569
29	0xbd847379	-0.06467337
30	0x3dcd930d	0.10037813
31	0x3e25308f	0.16131805
32	0xbe98b11f	-0.29822633
33	0xbe647873	-0.22311573
34	0x3dcaf7af	0.09910523
35	0xbdd1609a	-0.102235034
36	0x3df17058	0.11789006
37	0xbe772858	-0.24136484
38	0x3e002459	0.12513866
39	0xbe27de70	-0.16393447
40	0xbe0ad214	-0.13556701
41	0xbc8baff4	-0.017051674
42	0x3d8ed8f2	0.06974973
43	0xbe17327b	-0.1476535
44	0x3c2e4b33	0.010638046
45	0x3d9045c4	0.07044557
46	0xbe6185dd	-0.22023721
47	0x3d6b1292	0.057390757
48	0x3d73a1ef	0.059480604
49	0x3d069921	0.03286088
50	0x3c2f1b70	0.010687694
51	0xbe127d04	-0.14305502
52	0x3d99fae0	0.07518554
53	0x3d995718	0.07487315
54	0x3e5a9055	0.21344121
55	0x3d8099ce	0.06279336
56	0xbde19b74	-0.110159785
57	0xbda6392e	-0.08116375
58	0xbd3ab242	-0.045580156
59	0x3df97c17	0.121818714
60	0x3dfed504	0.12442973
61	0xbe02e3f8	-0.12782276
62	0xbe1bc6a7	-0.15212499
63	0xbe0b69cc	-0.13614577
64	0x3e1b69ad	0.15177031
65	0xbe6b186d	-0.22958536
66	0xbd74fb8d	-0.05981021
67	0xbc7de38d	-0.015496147
68	0x3dc3e821	0.095657595
69	0x3d71e6b0	0.05905789
70	0x3db53442	0.08847858
71	0xbd4d8763	-0.050177943
72	0xbe5a245e	-0.21302935
73	0x3e2200df	0.15820645
74	0xbe08f01c	-0.13372844
75	0x3d90446b	0.070443
76	0x3d0b1df4	0.033964112
77	0x3c4608fa	0.012087101
78	0x3cad7418	0.021173522
79	0xbd837fd2	-0.06420864
80	0x3dc1e308	0.09467131
81	0xbc125767	-0.008931971
82	0x3dee47f4	0.11634818
83	0x3d6b6d6e	0.057477407
84	0xbda9a867	-0.08284073
85	0x3dbbf5ea	0.09177764
86	0x3da3dbac	0.080008835
87	0x3b8653e6	0.004099357
88	0xbe083d11	-0.13304545
89	0x3d28821f	0.04113972
90	0x3e18839f	0.1489396
91	0xbd22a7b6	-0.039710723
92	0x3c9a54b4	0.018839218
93	0x3e09670d	0.13418217
94	0xbddc66e6	-0.10761814
95	0xbe604b3d	-0.21903701
96	0x3edaeb6e	0.42757744
97	0x3e6dd147	0.23224364
98	0x3e2780f2	0.16357782
99	0x3e90e71c	0.28301322
100	0xbc7c872a	-0.015413085
101	0x3ebab3f4	0.36465418
102	0x3e65e36b	0.22450034
103	0xbe1641de	-0.14673564
104	0x3ea56850	0.32306147
105	0x3d820022	0.063476816
106	0x3e8f2da0	0.27964497
107	0x3e1c96aa	0.15291849
108	0x3e208ff0	0.15679908
109	0x3e32c47e	0.17457768
110	0xbd626987	-0.05527642
111	0x3c7764a6	0.01509968
112	0x3edd3820	0.43206882
113	0xbe111dc1	-0.14171506
114	0x3dccfd75	0.100092806
115	0xbdef3536	-0.11680071
116	0x3df8b392	0.12143625
117	0x3dcba6e6	0.09943943
118	0x3e2b87df	0.1675105
119	0x3e21c19c	0.15796512
120	0xbd80e699	-0.06293983
121	0x3e74107d	0.23834415
122	0x3eda550f	0.4264302
123	0x3d3e6f91	0.046493117
124	0x3e797232	0.24359968
125	0x3cf06f66	0.029349994
126	0xbcce6b50	-0.025197655
127	0x3e1f7260	0.15570974

lstm.weight_ih_l1 f4 [128, 32]
0	0xbe6f302b	-0.23358218
1	0x3cb7f488	0.022455469
2	0xbcc239b6	-0.02370916
3	0x3ccecf71	0.0252454
4	0x3dafa0c8	0.085755885
5	0xbe957660	-0.29191875
6	0x3ea6a085	0.32544342
7	0xbe419c7a	-0.18907347
8	0x3dd7cfad	0.10537658
9	0x3d5f5fd0	0.054534733
10	0x3e8ac281	0.2710152
11	0xbd5cd942	-0.05391813
12	0x3e53aed4	0.2067216
13	0xbdeffd6a	-0.11718257
14	0xbdf5c4ac	-0.12000403
15	0xbc77c79d	-0.015123275
16	0xbdfc4b99	-0.123191066
17	0xbe257292	-0.16156986
18	0x3d8da3d4	0.06916013
19	0x3e62d138	0.22150123
20	0x3de4f8fa	0.11180301
21	0x3e7d5e47	0.24742995
22	0xbdf2bc17	-0.118522815
23	0x3d679569	0.056538973
24	0xbe2063c7	-0.15663062
25	0xbdebadb7	-0.11507743
26	0xbe962a5c	-0.29329193
27	0xbdf7024f	-0.12060987
28	0x3dab32a7	0.083592705
29	0xbc823108	-0.01589252
30	0x3cb20468	0.021730617
31	0x3e5fed19	0.2186779
32	0xbe38edba	-0.18059435
33	0x3e40d584	0.1883145
34	0x3dba69bd	0.09102199
35	0xbd53985d	-0.051658977
36	0xbe3231dc	-0.17401832
37	0xbe788fda	-0.24273625
38	0xbdaeb039	-0.085297056
39	0x3c493787	0.012281305
40	0x3e3aa5e2	0.18227342
41	0x3df90e60	0.12160945
42	0xbd17e786	-0.037086032
43	0x3de52f61	0.111906774
44	0x3e354c19	0.1770481
45	0x3e2ae277	0.16687952
46	0xbdfee3a1	-0.124457605
47	0x3da8040c	0.08203897
48	0x3ce48a1a	0.027897883
49	0x3e1b41f3	0.15161876
50	0x3e1d9e27	0.15392362
51	0x3e439229	0.19098724
52	0xbe3d6a29	-0.18497528
53	0x3e52af3d	0.2057466
54	0xbd3c031a	-0.045901395
55	0xbdcdca62	-0.10048367
56	0x3c7b357b	0.015332575
57	0xbe1f55f6	-0.15560135
58	0x3eaec974	0.34138072
59	0xbd568175	-0.052369554
60	0xbe31e598	-0.1737274
61	0xbe24d64a	-0.1609737
62	0x3de9e2ce	0.11420213
63	0x3d3aa069	0.045563135
64	0xbef1c614	-0.47221434
65	0x3e1d7b7c	0.15379137
66	0x3e346cad	0.17619582
67	0x3ce3f319	0.027825879
68	0x3e33adb1	0.17546727
69	0xbe28d27f	-0.16486548
70	0xbde0c158	-0.109743774
71	0x3c7d5570	0.015462264
72	0x3d329344	0.043597475
73	0x3e0dbcd8	0.1384157
74	0x3e525f51	0.20544173
75	0x3e403f50	0.18774152
76	0x3e10ec11	0.14152552
77	0xbe4411b8	-0.19147384
78	0x3dd56d80	0.10421276
79	0x3e56c8c3	0.20975022
80	0xbe724467	-0.23658906
81	0xbdf8da96	-0.12151067
82	0x3e57fb72	0.21092013
83	0x3e8b9973	0.2726551
84	0x3d6ffa92	0.05858857
85	0xbc1920d2	-0.009346204
86	0xbd2f677a	-0.042823292
87	0xbe4c55f8	-0.1995467
88	0xbd41acfb	-0.047284108
89	0x3dc4f5c8	0.096171916
90	0xbe232020	-0.15930223
91	0x3e3f9be2	0.18711808
92	0xbde59af9	-0.11211199
93	0xbcb0af27	-0.021567894
94	0xbbc3b2e4	-0.005972253
95	0x3ecfe5f9	0.40605143
96	0x3e5d834f	0.21632122
97	0xbe59464c	-0.21218222
98	0x3f025d8c	0.5092399
99	0xbf1c8473	-0.611396
100	0xbd90f5a1	-0.070781
101	0x3f83cc4b	1.029672
102	0xbdc13e6e	-0.09435736
103	0x3ea5f9ba	0.3241709
104	0x3d048284	0.032351032
105	0xbf4c0df2	-0.7970878
106	0xbe3db8e1	-0.18527557
107	0xbcdea905	-0.027180204
108	0xbebba26e	-0.36647362
109	0xbd5f37ce	-0.05449658
110	0x3e344f3d	0.17608352
111	0xbdd565e4	-0.10419825
112	0x3f5b907c	0.8576734
113	0x3e20750e	0.15669653
114	0x3ecf8d4e	0.40537494
115	0xbeec21e7	-0.46119615
116	0xbe0a18fc	-0.13486093
117	0xbeaf1b13	-0.34200343
118	0xbf5e0fb4	-0.8674271
119	0xbdcf7bdb	-0.101310454
120	0x3dc6351e	0.096781
121	0xbecd2ebc	-0.40074718
122	0x3e954b53	0.2915903
123	0xbcf28547	-0.029604567
124	0x3f5fd8ab	0.87439984
125	0x3e471645	0.19442089
126	0x3e842996	0.25812978
127	0xbf6a8631	-0.9161101
128	0x3edaa9db	0.42707714
129	0xbb5be5db	-0.0033553753
130	0xbc660100	-0.014038324
131	0x3cd0f8fe	0.025509354
132	0x3e9c9a41	0.30586436
133	0xbe876002	-0.26440436
134	0x3e072bd3	0.13200311
135	0xbdc33f08	-0.09533507
136	0xbd42bbb2	-0.04754228
137	0x3d1412b3	0.036150645
138	0xbdf37c59	-0.11888952
139	0x3e6ffe1f	0.23436783
140	0x3e1cc072	0.15307787
141	0xbdd43524	-0.10361698
142	0xbda5765e	-0.080792174
143	0xbe0b7994	-0.13620597
144	0x3e1f7c20	0.15574694
145	0xbe32645b	-0.17421095
146	0x3e848719	0.2588432
147	0x3e7630bb	0.24042027
148	0x3e50f8b8	0.20407379
149	0x3e361b43	0.17783837
150	0xbcbd4779	-0.02310537
151	0x3d3b4fc8	0.045730382
152	0x3b360ca1	0.0027778524
153	0x3d556a73	0.05210347
154	0x3e831b4f	0.25606772
155	0x3cae3d25	0.02126939
156	0x3ce42ae7	0.027852489
157	0xbb3283f8	-0.0027239304
158	0xbe8b2309	-0.27175167
159	0xbda6e308	-0.081487715
160	0xbe789bbb	-0.24278156
161	0x3d5547e4	0.052070513
162	0x3db17f75	0.086668886
163	0xbd301fd5	-0.042999107
164	0xbe0c6d18	-0.13713491
165	0xbe8145d9	-0.25248602
166	0x3e0429f2	0.12906626
167	0xbdb4f26b	-0.088353
168	0x3df1a3cf	0.11798822
169	0x3e9f5f0f	0.3112721
170	0x3ee5205d	0.44751254
171	0x3d0e1325	0.034686226
172	0xbe3ab96a	-0.18234792
173	0x3e0794b0	0.13240314
174	0xbd39b1b2	-0.04533548
175	0xbd8b1b76	-0.06792347
176	0xbe4ccee3	-0.20000796
177	0xbda3f245	-0.080051936
178	0xbe55a285	-0.20862778
179	0xbda0c946	-0.0785089
180	0x3df9c1dd	0.121951796
181	0x3dbe739b	0.09299394
182	0x3e5005e4	0.20314747
183	0xbe7477ae	-0.23873779
184	0x3dccbb52	0.09996666
185	0x3e12dd15	0.14342149
186	0xbb89e715	-0.0042084553
187	0xbb3c7f17	-0.0028762275
188	0x3d9ae8f9	0.07563967
189	0x3d0e7525	0.034779686
190	0x3d792235	0.060823638
191	0xbbd74f13	-0.0065707057
192	0xbe816144	-0.2526952
193	0x3ec83a9e	0.3910722
194	0xbe33d630	-0.17562175
195	0x3dfbe8da	0.12300272
196	0x3ee3608c	0.44409597
197	0xbf55a440	-0.8345375
198	0x3eb6d80e	0.35711712
199	0xbebc55ef	-0.36784312
200	0x3dce0311	0.100591786
201	0x3e0a5a6e	0.13511059
202	0xbcafe585	-0.021471748
203	0x3f003056	0.50073755
204	0x3ebedf31	0.37279657
205	0xbe8e4010	-0.2778325
206	0x3ea977af	0.33099124
207	0xbec4c906	-0.3843462
208	0xbd09e973	-0.0336699
209	0xbf0015cd	-0.50033265
210	0x3edf39e6	0.4359886
211	0x3edc815b	0.4306744
212	0x3f07f289	0.53104454
213	0x3f09341b	0.5359513
214	0xbe468fa7	-0.19390737
215	0x3da0c26e	0.078495845
216	0xbde69bf4	-0.112602144
217	0x3ec72c36	0.38900918
218	0xbec10eaa	-0.377065
219	0x3e998e90	0.2999158
220	0xbf0192e0	-0.5061474
221	0x3eba1e71	0.3635135
222	0xbeebfc13	-0.46090755
223	0x3f582f18	0.8444686
224	0x3d78efff	0.060775753
225	0x3e164fb5	0.14678843
226	0xbe464464	-0.19362026
227	0xbd30cae4	-0.04316224
228	0x3d9feb7a	0.078085855
229	0xbede64e8	-0.4343636
230	0x3d4adbc3	0.049525987
231	0xbd2022fc	-0.039095864
232	0x3d09f087	0.03367665
233	0x3e43950a	0.19099823
234	0xbd6b7c41	-0.057491545
235	0x3e1a8d20	0.15092897
236	0x3b3b76df	0.0028604788
237	0xbdcc8ff8	-0.09988397
238	0xbe120754	-0.14260608
239	0x3e0160e9	0.12634625
240	0xbe442189	-0.19153418
241	0xbd200660	-0.03906858
242	0x3d0d58cc	0.03450851
243	0x3d6015ad	0.05470817
244	0xbdef5868	-0.11686784
245	0x3e59becc	0.2126419
246	0x3eb0f199	0.34559324
247	0x3dea2e06	0.114345595
248	0xbe4a719c	-0.19769901
249	0x3e4ceb6b	0.2001168
250	0x3d023157	0.031785335
251	0x3d95436a	0.07288249
252	0xbe148272	-0.14502886
253	0x3dd3b9a6	0.10338144
254	0xbe450d02	-0.19243243
255	0x3ea66920	0.3250208

lstm.weight_hh_l1 f4 [128, 32]
0	0xbb62fd92	-0.0034636003
1	0x3d013113	0.03154094
2	0xbd6b0c45	-0.057384748
3	0x3e1d0244	0.15332896
4	0x3e57132b	0.21003406
5	0xbdcec5a5	-0.100962915
6	0xbd6e5ad1	-0.058192078
7	0x3c937b71	0.018003197
8	0x3da5681c	0.08076498
9	0x3d7562ed	0.059908796
10	0x3d36da32	0.04464168
11	0x3dbe47ad	0.09291015
12	0x3baddb36	0.005305673
13	0x3c8f2e9d	0.017478282
14	0xbe09a879	-0.13443173
15	0x3e12e190	0.14343858
16	0x3e9b7ac3	0.30367097
17	0x3d3906ba	0.04517243
18	0xbe0b8248	-0.13623917
19	0xbd8cc0ae	-0.06872688
20	0xbe1c2cd9	-0.15251483
21	0x3d754b83	0.059886467
22	0xbdf45ec9	-0.11932141
23	0xbd059cd0	-0.03262025
24	0x3ddd40fc	0.108034104
25	0xbe05b409	-0.13056959
26	0xbe4122a9	-0.18860878
27	0x3cdb8c39	0.026800262
28	0xbceb059f	-0.028689204
29	0x3d851690	0.06498444
30	0x3dbe6c64	0.092980176
31	0xbd396487	-0.045261886
32	0x3e10c03c	0.14135832
33	0x3e04f865	0.1298538
34	0xbda03b4c	-0.0782381
35	0x3e75b534	0.23994905
36	0xbdee355f	-0.116312735
37	0x3cabc671	0.020968648
38	0xbdf066cb	-0.11738356
39	0x3dc469de	0.09590505
40	0xbc991f34	-0.018691637
41	0xbc3c7928	-0.011503495
42	0x3dc2cc03	0.095115684
43	0xbd83c6b5	-0.06434385
44	0x3e01159a	0.12605897
45	0x3e285c75	0.1644152
46	0x3e0c54d4	0.13704234
47	0xbc80d5d5	-0.015726963
48	0x3cf93d7d	0.030424828
49	0xbdd204c1	-0.10254813
50	0xba1af1c8	-0.0005910662
51	0xbdf47705	-0.11936764
52	0xbe40835a	-0.18800107
53	0x3d074767	0.03302708
54	0xbdd7e84b	-0.10542353
55	0x3db890dd	0.090120055
56	0xbe2a95b0	-0.16658664
57	0xbe45f886	-0.19333085
58	0x3d7fe226	0.06247153
59	0xbe09b3a5	-0.13447435
60	0xbe19a92f	-0.15005945
61	0xbca2dc10	-0.019880325
62	0x3e786128	0.24255812
63	0xbd63bb73	-0.055598687
64	0x3d532cb4	0.051556304
65	0xbe0bebcc	-0.13664168
66	0x3e36612c	0.17810506
67	0xbdcc1e0e	-0.0996667
68	0xbdda92f7	-0.106725626
69	0xbe15c103	-0.1462441
70	0xbe0a4cfd	-0.13505931
71	0x3deb2b98	0.11482924
72	0x3dae02a3	0.08496597
73	0x3bfc6f6e	0.007703713
74	0x3dc2667d	0.09492204
75	0xbd03ae3c	-0.032148585
76	0xbd7d6eb3	-0.06187315
77	0xbd4b4ae4	-0.04963197
78	0xbe25c8c5	-0.16189869
79	0x3d2ab0f2	0.041672654
80	0x3d1ba99a	0.03800354
81	0xbdf43d1c	-0.11925718
82	0xbcf3db32	-0.029767606
83	0xbe97b544	-0.29630482
84	0x3e5f12c5	0.21784504
85	0xbc86b48f	-0.016443519
86	0xbe34a6e1	-0.17641784
87	0x3c9df813	0.01928333
88	0xbde442a1	-0.11145521
89	0xbd652384	-0.055942073
90	0xbd9cd14f	-0.0765711
91	0xbdd6bdfa	-0.10485454
92	0xbbb58141	-0.00553909
93	0xbe0d88a3	-0.13821654
94	0xbd867045	-0.065643825
95	0x3d2999d9	0.041406486
96	0xbe11b95d	-0.14230867
97	0x3e355367	0.17707597
98	0x3e88b207	0.26698324
99	0x3e2eda12	0.17075375
100	0xbe9e47bd	-0.30914107
101	0xbd2249ea	-0.03962127
102	0x3e8f4c85	0.27988067
103	0x3e6f284a	0.23355213
104	0x3e440538	0.19142616
105	0x3ef47920	0.4774866
106	0xbe55e36a	-0.20887533
107	0x3e13edc8	0.14446175
108	0xbf2e508a	-0.6809164
109	0xbeee921c	-0.46595848
110	0xbed70117	-0.4199302
111	0x3eb00423	0.34378156
112	0xbd3ae131	-0.045624916
113	0x3e7dbc67	0.24778901
114	0xbf239b23	-0.63908595
115	0x3e79f9d9	0.24411716
116	0x3ebda02c	0.37036264
117	0xbf23d0e5	-0.6399062
118	0x3c107dd7	0.008819065
119	0x3e9a5491	0.30142644
120	0xbf49eafa	-0.7887417
121	0x3e94d1c5	0.2906629
122	0xbeb1ea69	-0.34749153
123	0xbecbea21	-0.39827064
124	0x3ed24dd5	0.41075006
125	0xbef0a072	-0.4699741
126	0xbeced9f9	-0.40400675
127	0x3ef368dc	0.4754094
128	0x3cd8d2bf	0.026467679
129	0x3e827d91	0.25486425
130	0x3eb349ba	0.35017186
131	0x3dd897e2	0.10575844
132	0xbab59b65	-0.0013855515
133	0xbe06d003	-0.13165288
134	0x3e0b17e1	0.13583328
135	0x3e3cde0a	0.18444076
136	0xbcd88bae	-0.026433792
137	0x3c92b39c	0.01790791
138	0x3e95ea8b	0.29280505
139	0x3d89d5ed	0.06730256
140	0xbd0e114a	-0.034684457
141	0xbe61b542	-0.220418
142	0xbe1c6b1a	-0.15275231
143	0xbe53bfe7	-0.20678674
144	0xbdd61205	-0.10452656
145	0x3c96f0f9	0.018425452
146	0x3d3f11b7	0.046647754
147	0xbea9a7e8	-0.33135915
148	0x3e805940	0.25068092
149	0x3c7c706c	0.015407663
150	0xbe0b1cb8	-0.13585174
151	0xbcbc5e27	-0.022994114
152	0x3c5006b5	0.012696912
153	0xbd5a6b89	-0.05332521
154	0x3c26036a	0.01013265
155	0xbe31a2ae	-0.17347214
156	0xbe115804	-0.14193732
157	0x3d58eea7	0.05296197
158	0x3e3116ba	0.17293826
159	0xbe6b5282	-0.22980693
160	0x3d4f3334	0.05058594
161	0x3d167b28	0.036738545
162	0x3d90d1b5	0.070712484
163	0x3d9f9b70	0.07793319
164	0x3e93989c	0.2882737
165	0xbe1624ae	-0.1466243
166	0x3e39f599	0.18160094
167	0xbba2b799	-0.004965734
168	0xbe1c8cd7	-0.15288101
169	0xbd803fa1	-0.06262136
170	0xbe95d7b7	-0.2926614
171	0x3cd956d6	0.026530664
172	0x3dd6500b	0.10464486
173	0x3e3dc721	0.18532993
174	0xbd184b59	-0.037181232
175	0x3dd5f2ba	0.10446687
176	0x3da21b7d	0.07915399
177	0xbe38cf6b	-0.18047874
178	0x3d4c4dab	0.049878757
179	0xbea94da6	-0.33067054
180	0x3e38a7f2	0.18032816
181	0x3c0fc5de	0.008775203
182	0x3e464ea0	0.1936593
183	0xbe31ce7f	-0.17363928
184	0x3e819edd	0.25316516
185	0xbe2108ca	-0.15726009
186	0xbdccdba9	-0.10002834
187	0x3dfdae10	0.123867154
188	0xbe5f0b29	-0.21781601
189	0xbe255662	-0.16146234
190	0x3a0e3cc1	0.0005425923
191	0xbe467211	-0.1937945
192	0x3eddd8f8	0.43329597
193	0x3f04777d	0.51744825
194	0x3f2ccbb7	0.67498344
195	0xbdf94c91	-0.12172807
196	0xbebee049	-0.3728049
197	0xbf28e929	-0.65980774
198	0x3ee605ee	0.449264
199	0x3ed4424c	0.4145683
200	0x3eb86064	0.3601104
201	0x3eabfc79	0.3359106
202	0x3eec3b6b	0.46139082
203	0x3ecc1922	0.39862925
204	0xbeb3cf73	-0.3511921
205	0xbef8d368	-0.4859879
206	0xbf04f48c	-0.5193565
207	0xbf2a756b	-0.66585416
208	0x3e045afe	0.12925336
209	0x3dc0c95e	0.09413408
210	0xbe7b8041	-0.24560644
211	0x3e742e5a	0.23845807
212	0x3f4f1113	0.8088543
213	0xbeb8793f	-0.36030003
214	0xbeba156c	-0.3634447
215	0x3ef8dd4c	0.48606336
216	0x3d60e43d	0.054905165
217	0xbd4caf6e	-0.04997199
218	0x3e9caffa	0.3060301
219	0xbf114bd5	-0.56756335
220	0x3e6d92e3	0.23200564
221	0xbeee3080	-0.46521378
222	0xbdffd6e7	-0.12492161
223	0xbe86f452	-0.26358277
224	0xbccd3a23	-0.025052136
225	0x3cb9647e	0.022630926
226	0x3e2b2b68	0.16715777
227	0xbe0200fd	-0.1269569
228	0xbdb922d0	-0.09039843
229	0xbe3737f1	-0.17892434
230	0xbcb529c8	-0.02211465
231	0x3c062044	0.008186404
232	0xbd93066f	-0.071789615
233	0xbe5fb3d7	-0.21845947
234	0xbdf495bd	-0.11942623
235	0xbb7242a1	-0.0036965983
236	0xbca8456a	-0.020540912
237	0x3e2db7c2	0.1696463
238	0x3d01ed53	0.03172047
239	0xbd1d1f2a	-0.0383598
240	0x3d7647a6	0.060126923
241	0xbcde13df	-0.027109085
242	0x3df02677	0.117260866
243	0xbe0d27b7	-0.13784681
244	0x3d1e9bd5	0.03872283
245	0xbe363ee5	-0.1779743
246	0xbe13287f	-0.14370917
247	0x3e23722d	0.15961523
248	0xbc5bef32	-0.013423728
249	0x3d1ebaef	0.038752493
250	0xbd058e7e	-0.032606594
251	0xbd7581af	-0.05993813
252	0x3df6faa0	0.12059522
253	0xbe14ed45	-0.14543636
254	0xbc827c47	-0.0159284
255	0xbe252852	-0.16128662

lstm.bias_ih_l1 f4 [128]
0	0x3dece843	0.11567738
1	0xbd4ba79b	-0.049720388
2	0xbca6d895	-0.020366946
3	0x3e918b48	0.28426576
4	0x3d8ffad8	0.070302665
5	0x3e0ea04a	0.13928333
6	0x3ef0187d	0.46893683
7	0x3d94570a	0.07243164
8	0x3e49c8da	0.19705525
9	0xbdc6c091	-0.09704698
10	0x3dc55497	0.09635275
11	0x3e116cfe	0.14201733
12	0x3da4a267	0.08038788
13	0x3d6a8713	0.057257723
14	0x3e5e90a0	0.21734858
15	0x3e07741e	0.13227889
16	0xbe5ec78c	-0.21755809
17	0x3edfdb55	0.43722025
18	0x3dc210bf	0.0947585
19	0x3d2dece1	0.042462233
20	0x3e865aa7	0.26241037
21	0x3e35d415	0.17756684
22	0x3d42cbef	0.047557767
23	0x3c7debd1	0.015498118
24	0x3f04ab2f	0.51823705
25	0x3ce861c5	0.028366933
26	0x3e234758	0.15945184
27	0x3d6f3dcd	0.058408547
28	0xbdd8d593	-0.10587611
29	0x3df081d2	0.11743511
30	0x3d902fdd	0.07040379
31	0xbd17c513	-0.03705318
32	0x3e1da288	0.15394032
33	0xbdf608a6	-0.12013368
34	0x3e410f2d	0.18853445
35	0xbc5e1089	-0.013553747
36	0x3e44b7be	0.19210717
37	0xbdc7b847	-0.09751945
38	0xbc6adb80	-0.014334559
39	0x3d202ae7	0.039103415
40	0x3da06d44	0.07833341
41	0x3db9a629	0.09064896
42	0x3e17931f	0.14802216
43	0x3d8980cf	0.067140214
44	0xbc0fb8b8	-0.008772068
45	0xbccc5abc	-0.02494561
46	0x3e324bcd	0.17411728
47	0xbd94e5ab	-0.07270368
48	0xbd93317f	-0.07187175
49	0xbc5ee1c4	-0.013603631
50	0x3dd0a87b	0.10188385
51	0xbe5889f1	-0.2114637
52	0xbd733485	-0.05937626
53	0x3c36c945	0.011156385
54	0xbded912b	-0.11599954
55	0x3c3420f0	0.010994181
56	0x3e155468	0.1458298
57	0xbdd4a4d7	-0.10383003
58	0xbd7293f3	-0.059223127
59	0x3e1c7684	0.15279585
60	0x3d4c40df	0.049866553
61	0x3ddb6db8	0.107142866
62	0xba59f1a0	-0.0008313898
63	0x3d2026dc	0.03909956
64	0x3e77bf66	0.24194106
65	0x3dc5ce59	0.09658498
66	0x3e71a381	0.23597528
67	0xbdf2a932	-0.11848678
68	0xbe0eac8d	-0.1393301
69	0xbcf8b028	-0.030357435
70	0x3e3ad5d6	0.18245634
71	0x3e1d603e	0.15368745
72	0x3e05df25	0.13073404
73	0x3cc027bf	0.023456452
74	0x3dfdf014	0.12399307
75	0x3dd66e3e	0.10470246
76	0xbd88f63f	-0.06687593
77	0xbdd611f1	-0.10452641
78	0xbe656394	-0.22401267
79	0xbe1c67a7	-0.15273915
80	0x3dac762d	0.08420978
81	0xbc0e01f0	-0.008667454
82	0xbe1b36b0	-0.1515758
83	0x3cec1ba1	0.028821768
84	0xbcc1962e	-0.023631182
85	0xbcd30c9a	-0.025762845
86	0x3d2fbf48	0.04290703
87	0x3dc1f30f	0.09470188
88	0xbd54ce46	-0.05195453
89	0x3d29c5d6	0.041448437
90	0x3d42130e	0.047381453
91	0xbdcea997	-0.100909404
92	0x3c501986	0.012701398
93	0xbe38f0ea	-0.18060651
94	0x3ca82dcc	0.02052965
95	0xbdfea04c	-0.12432918
96	0xbe044545	-0.12917049
97	0x3e07ba83	0.13254742
98	0x3d5dd9aa	0.05416266
99	0x3cc0575f	0.023479162
100	0xbc86b524	-0.016443796
101	0x3dbf3ff1	0.09338368
102	0x3e50341e	0.20332381
103	0xbdf01a43	-0.11723759
104	0xbe146dd7	-0.14495026
105	0x3bb120a7	0.005405504
106	0x3e516d17	0.2045177
107	0xbdc19d27	-0.094538026
108	0x3d9bb402	0.07602693
109	0x3d7a9198	0.061174005
110	0x3db6bde7	0.0892294
111	0x3e5f2ee7	0.21795236
112	0x3d46295c	0.048379287
113	0x3f03cce3	0.5148451
114	0x3d1745f9	0.036931966
115	0x3e020b52	0.12699631
116	0x3e38996f	0.1802728
117	0x3d7d1926	0.06179156
118	0x3ec347b1	0.38140634
119	0x3e3ce2ae	0.18445846
120	0x3e9aa6c5	0.3020536
121	0x3c7fa7c0	0.01560396
122	0x3e0d1ca2	0.13780454
123	0x3debfe07	0.11523061
124	0x3d7abba0	0.06121409
125	0xbe09589d	-0.1341271
126	0x3d3488b7	0.044075694
127	0xbdc31374	-0.09525195

lstm.bias_hh_l1 f4 [128]
0	0x3e0625a5	0.13100298
1	0x3dd9c99c	0.10634157
2	0x3e402ed9	0.18767871
3	0x3dea45bb	0.11439081
4	0x3daeb22f	0.085300796
5	0xbbffba2b	-0.0078041754
6	0x3ed72d21	0.42026618
7	0xbdd8565a	-0.10563345
8	0x3de7f001	0.11325074
9	0x3e25e54b	0.1620075
10	0x3dac6df7	0.08419412
11	0x3e0eafd4	0.1393426
12	0x3e1bb644	0.15206248
13	0xbc9475aa	-0.018122513
14	0xbd89fe02	-0.06737901
15	0xbcc0b4c5	-0.023523698
16	0xbe75878e	-0.23977491
17	0x3ee4e923	0.4470912
18	0xbda6c287	-0.08142572
19	0xbd56e1f5	-0.052461583
20	0x3e91e047	0.28491423
21	0x3cf2e465	0.029649923
22	0x3e736d9c	0.23772281
23	0xbcb8fd3e	-0.022581693
24	0x3efa45a1	0.48881248
25	0x3d915340	0.07095957
26	0x3e0a688c	0.13516444
27	0x3d20c08b	0.039246123
28	0x3d81783a	0.063217595
29	0xba2fec8d	-0.0006710969
30	0xbddee8c1	-0.10884238
31	0xbd1418a7	-0.036156323
32	0xbd2905f4	-0.041265443
33	0xbda6a4b8	-0.08136886
34	0xbd930c78	-0.071801126
35	0xbd8ff0d1	-0.07028354
36	0xbcb0d786	-0.021587145
37	0xbe030179	-0.1279353
38	0xbe0c098a	-0.13675514
39	0xbdd54c74	-0.10414973
40	0x3d0b5e7e	0.03402566
41	0x3b73e2f8	0.0037214141
42	0x3d0467fe	0.032325737
43	0x3dedfa3f	0.11619996
44	0x3e25ba4d	0.1618435
45	0x3bbe1bdc	0.005801661
46	0xbd460d0c	-0.048352286
47	0x3de8b643	0.11362889
48	0xbdc45965	-0.09587363
49	0x3dfc0ff9	0.12307734
50	0x3e1463cd	0.14491196
51	0xbe0f7305	-0.1400872
52	0x3dc43962	0.095812574
53	0xbdd702c6	-0.10498576
54	0xbdcb1a37	-0.099171095
55	0x3d59379b	0.053031545
56	0xbc745b2d	-0.014914316
57	0xbd80db6d	-0.06291852
58	0xbd81e7d5	-0.063430466
59	0xbd4f663d	-0.05063461
60	0x3e0131c3	0.12616639
61	0xbde50b6e	-0.11183821
62	0x3e03628d	0.12830563
63	0xbe037733	-0.1283844
64	0x3dc987df	0.098403685
65	0x3e2deac5	0.16984089
66	0x3cbc8f90	0.023017675
67	0x3d847291	0.06467164
68	0xbdc1edda	-0.09469195
69	0xbe49979f	-0.19686745
70	0xbcef83ce	-0.029237654
71	0x3d823dce	0.063594446
72	0x3d8a6e84	0.067593604
73	0x3e150245	0.14551647
74	0xbd2f7ba3	-0.04284252
75	0x3e7abac0	0.24485302
76	0xbe48135e	-0.19538638
77	0xbc5d311a	-0.013500476
78	0xbe743ce8	-0.23851359
79	0xbda773d7	-0.081763916
80	0xbd6a8f73	-0.05726571
81	0xbe16f856	-0.1474317
82	0xbd5f57c8	-0.054527074
83	0x3ca136bb	0.019679418
84	0xbca998e6	-0.02070279
85	0xbe66a413	-0.22523527
86	0xbe195b38	-0.14976203
87	0x3e471d27	0.19444714
88	0xbc52d030	-0.012867019
89	0xbdd76c9c	-0.105187625
90	0x3b4b9db4	0.003106934
91	0xbe35511f	-0.17706726
92	0x3a1a5b07	0.0005888198
93	0x3d4b3b8f	0.049617346
94	0x3d751151	0.059830967
95	0xbd8e0b44	-0.069357425
96	0x3da1112d	0.07864604
97	0x3d94554c	0.072428316
98	0xbb05bdaf	-0.002040725
99	0x3e83fbaa	0.25777942
100	0x3e80db55	0.25167337
101	0xbc4ba0b4	-0.012428451
102	0x3ddfd129	0.10928566
103	0x3c8653bd	0.016397351
104	0xbd51db2b	-0.051234405
105	0x3e0babee	0.13639805
106	0x3d1ba5a4	0.037999764
107	0xbde67e0b	-0.112545095
108	0x3e3175ff	0.17330168
109	0x3d6f66aa	0.058447517
110	0x3e1cfa84	0.15329939
111	0x3e137f1d	0.14403959
112	0x3ce7fc49	0.028318541
113	0x3f0a68dd	0.5406626
114	0x3e214024	0.15747124
115	0xbdfb600a	-0.12274177
116	0xbd4a28a2	-0.049355157
117	0x3e51fd0b	0.20506684
118	0x3de56398	0.112006366
119	0x3e272422	0.16322377
120	0x3e523c37	0.20530783
121	0xbd6d08b4	-0.057869628
122	0xbb9b9f61	-0.004749224
123	0x3da09187	0.07840257
124	0x3dcadf12	0.099058285
125	0xbe3d2e03	-0.18474583
126	0xbd923817	-0.071396045
127	0xbd07b2d4	-0.03312953

fc.weight f4 [1, 32]
0	0x3da41334	0.08011475
1	0x3e32062d	0.17385168
2	0x3dce7f6f	0.100829
3	0xbe7c1454	-0.2461713
4	0xbd84c1fb	-0.06482311
5	0xbd21a98d	-0.039468337
6	0x3e9a422b	0.30128607
7	0x3da64913	0.081194066
8	0x3d8b66fc	0.06806752
9	0x3e2dc84d	0.1697094
10	0xbddbdbea	-0.10735305
11	0x3d970ea3	0.073758386
12	0xbd576584	-0.052587047
13	0xbe09ebfe	-0.1346893
14	0xbe3dbfd2	-0.18530205
15	0xbd534f93	-0.05158956
16	0x3cadb62b	0.021205029
17	0xbdca5376	-0.098792
18	0xbe0601a5	-0.13086565
19	0x3e103cac	0.14085644
20	0x3df1790b	0.11790665
21	0xbdd51014	-0.10403457
22	0xbc7e7c5e	-0.015532581
23	0x3d51eb4c	0.051249787
24	0x3e0594a3	0.13044982
25	0x3d12ea8b	0.03586821
26	0x3df8c7af	0.121474616
27	0xbe23a6af	-0.15981553
28	0x3d4824d3	0.048863243
29	0xbe11c83c	-0.1423654
30	0xbdb618dc	-0.0889146
31	0x3d12b969	0.035821352
